WARNING:tensorflow:`input_shape` is undefined or non-square, or `rows` is not in [128, 160, 192, 224]. Weights for input shape (224, 224) will be loaded as the default.
29it [00:00, 286.29it/s]Model: "model_1"
_________________________________________________________________
Layer (type)                 Output Shape              Param #   
=================================================================
input_2 (InputLayer)         [(None, 56, 56)]          0         
_________________________________________________________________
lambda_1 (Lambda)            (None, 56, 56, 3)         0         
_________________________________________________________________
conv1 (Conv2D)               (None, 28, 28, 32)        864       
_________________________________________________________________
conv1_bn (BatchNormalization (None, 28, 28, 32)        128       
_________________________________________________________________
conv1_relu (ReLU)            (None, 28, 28, 32)        0         
_________________________________________________________________
conv_dw_1 (DepthwiseConv2D)  (None, 28, 28, 32)        288       
_________________________________________________________________
conv_dw_1_bn (BatchNormaliza (None, 28, 28, 32)        128       
_________________________________________________________________
conv_dw_1_relu (ReLU)        (None, 28, 28, 32)        0         
_________________________________________________________________
conv_pw_1 (Conv2D)           (None, 28, 28, 64)        2048      
_________________________________________________________________
conv_pw_1_bn (BatchNormaliza (None, 28, 28, 64)        256       
_________________________________________________________________
conv_pw_1_relu (ReLU)        (None, 28, 28, 64)        0         
_________________________________________________________________
conv_pad_2 (ZeroPadding2D)   (None, 29, 29, 64)        0         
_________________________________________________________________
conv_dw_2 (DepthwiseConv2D)  (None, 14, 14, 64)        576       
_________________________________________________________________
conv_dw_2_bn (BatchNormaliza (None, 14, 14, 64)        256       
_________________________________________________________________
conv_dw_2_relu (ReLU)        (None, 14, 14, 64)        0         
_________________________________________________________________
conv_pw_2 (Conv2D)           (None, 14, 14, 128)       8192      
_________________________________________________________________
conv_pw_2_bn (BatchNormaliza (None, 14, 14, 128)       512       
_________________________________________________________________
conv_pw_2_relu (ReLU)        (None, 14, 14, 128)       0         
_________________________________________________________________
conv_dw_3 (DepthwiseConv2D)  (None, 14, 14, 128)       1152      
_________________________________________________________________
conv_dw_3_bn (BatchNormaliza (None, 14, 14, 128)       512       
_________________________________________________________________
conv_dw_3_relu (ReLU)        (None, 14, 14, 128)       0         
_________________________________________________________________
conv_pw_3 (Conv2D)           (None, 14, 14, 128)       16384     
_________________________________________________________________
conv_pw_3_bn (BatchNormaliza (None, 14, 14, 128)       512       
_________________________________________________________________
conv_pw_3_relu (ReLU)        (None, 14, 14, 128)       0         
_________________________________________________________________
conv_pad_4 (ZeroPadding2D)   (None, 15, 15, 128)       0         
_________________________________________________________________
conv_dw_4 (DepthwiseConv2D)  (None, 7, 7, 128)         1152      
_________________________________________________________________
conv_dw_4_bn (BatchNormaliza (None, 7, 7, 128)         512       
_________________________________________________________________
conv_dw_4_relu (ReLU)        (None, 7, 7, 128)         0         
_________________________________________________________________
conv_pw_4 (Conv2D)           (None, 7, 7, 256)         32768     
_________________________________________________________________
conv_pw_4_bn (BatchNormaliza (None, 7, 7, 256)         1024      
_________________________________________________________________
conv_pw_4_relu (ReLU)        (None, 7, 7, 256)         0         
_________________________________________________________________
conv_dw_5 (DepthwiseConv2D)  (None, 7, 7, 256)         2304      
_________________________________________________________________
conv_dw_5_bn (BatchNormaliza (None, 7, 7, 256)         1024      
_________________________________________________________________
conv_dw_5_relu (ReLU)        (None, 7, 7, 256)         0         
_________________________________________________________________
conv_pw_5 (Conv2D)           (None, 7, 7, 256)         65536     
_________________________________________________________________
conv_pw_5_bn (BatchNormaliza (None, 7, 7, 256)         1024      
_________________________________________________________________
conv_pw_5_relu (ReLU)        (None, 7, 7, 256)         0         
_________________________________________________________________
conv_pad_6 (ZeroPadding2D)   (None, 8, 8, 256)         0         
_________________________________________________________________
conv_dw_6 (DepthwiseConv2D)  (None, 3, 3, 256)         2304      
_________________________________________________________________
conv_dw_6_bn (BatchNormaliza (None, 3, 3, 256)         1024      
_________________________________________________________________
conv_dw_6_relu (ReLU)        (None, 3, 3, 256)         0         
_________________________________________________________________
conv_pw_6 (Conv2D)           (None, 3, 3, 512)         131072    
_________________________________________________________________
conv_pw_6_bn (BatchNormaliza (None, 3, 3, 512)         2048      
_________________________________________________________________
conv_pw_6_relu (ReLU)        (None, 3, 3, 512)         0         
_________________________________________________________________
conv_dw_7 (DepthwiseConv2D)  (None, 3, 3, 512)         4608      
_________________________________________________________________
conv_dw_7_bn (BatchNormaliza (None, 3, 3, 512)         2048      
_________________________________________________________________
conv_dw_7_relu (ReLU)        (None, 3, 3, 512)         0         
_________________________________________________________________
conv_pw_7 (Conv2D)           (None, 3, 3, 512)         262144    
_________________________________________________________________
conv_pw_7_bn (BatchNormaliza (None, 3, 3, 512)         2048      
_________________________________________________________________
conv_pw_7_relu (ReLU)        (None, 3, 3, 512)         0         
_________________________________________________________________
conv_dw_8 (DepthwiseConv2D)  (None, 3, 3, 512)         4608      
_________________________________________________________________
conv_dw_8_bn (BatchNormaliza (None, 3, 3, 512)         2048      
_________________________________________________________________
conv_dw_8_relu (ReLU)        (None, 3, 3, 512)         0         
_________________________________________________________________
conv_pw_8 (Conv2D)           (None, 3, 3, 512)         262144    
_________________________________________________________________
conv_pw_8_bn (BatchNormaliza (None, 3, 3, 512)         2048      
_________________________________________________________________
conv_pw_8_relu (ReLU)        (None, 3, 3, 512)         0         
_________________________________________________________________
conv_dw_9 (DepthwiseConv2D)  (None, 3, 3, 512)         4608      
_________________________________________________________________
conv_dw_9_bn (BatchNormaliza (None, 3, 3, 512)         2048      
_________________________________________________________________
conv_dw_9_relu (ReLU)        (None, 3, 3, 512)         0         
_________________________________________________________________
conv_pw_9 (Conv2D)           (None, 3, 3, 512)         262144    
_________________________________________________________________
conv_pw_9_bn (BatchNormaliza (None, 3, 3, 512)         2048      
_________________________________________________________________
conv_pw_9_relu (ReLU)        (None, 3, 3, 512)         0         
_________________________________________________________________
conv_dw_10 (DepthwiseConv2D) (None, 3, 3, 512)         4608      
_________________________________________________________________
conv_dw_10_bn (BatchNormaliz (None, 3, 3, 512)         2048      
_________________________________________________________________
conv_dw_10_relu (ReLU)       (None, 3, 3, 512)         0         
_________________________________________________________________
conv_pw_10 (Conv2D)          (None, 3, 3, 512)         262144    
_________________________________________________________________
conv_pw_10_bn (BatchNormaliz (None, 3, 3, 512)         2048      
_________________________________________________________________
conv_pw_10_relu (ReLU)       (None, 3, 3, 512)         0         
_________________________________________________________________
conv_dw_11 (DepthwiseConv2D) (None, 3, 3, 512)         4608      
_________________________________________________________________
conv_dw_11_bn (BatchNormaliz (None, 3, 3, 512)         2048      
_________________________________________________________________
conv_dw_11_relu (ReLU)       (None, 3, 3, 512)         0         
_________________________________________________________________
conv_pw_11 (Conv2D)          (None, 3, 3, 512)         262144    
_________________________________________________________________
conv_pw_11_bn (BatchNormaliz (None, 3, 3, 512)         2048      
_________________________________________________________________
conv_pw_11_relu (ReLU)       (None, 3, 3, 512)         0         
_________________________________________________________________
conv_pad_12 (ZeroPadding2D)  (None, 4, 4, 512)         0         
_________________________________________________________________
conv_dw_12 (DepthwiseConv2D) (None, 1, 1, 512)         4608      
_________________________________________________________________
conv_dw_12_bn (BatchNormaliz (None, 1, 1, 512)         2048      
_________________________________________________________________
conv_dw_12_relu (ReLU)       (None, 1, 1, 512)         0         
_________________________________________________________________
conv_pw_12 (Conv2D)          (None, 1, 1, 1024)        524288    
_________________________________________________________________
conv_pw_12_bn (BatchNormaliz (None, 1, 1, 1024)        4096      
_________________________________________________________________
conv_pw_12_relu (ReLU)       (None, 1, 1, 1024)        0         
_________________________________________________________________
conv_dw_13 (DepthwiseConv2D) (None, 1, 1, 1024)        9216      
_________________________________________________________________
conv_dw_13_bn (BatchNormaliz (None, 1, 1, 1024)        4096      
_________________________________________________________________
conv_dw_13_relu (ReLU)       (None, 1, 1, 1024)        0         
_________________________________________________________________
conv_pw_13 (Conv2D)          (None, 1, 1, 1024)        1048576   
_________________________________________________________________
conv_pw_13_bn (BatchNormaliz (None, 1, 1, 1024)        4096      
_________________________________________________________________
conv_pw_13_relu (ReLU)       (None, 1, 1, 1024)        0         
_________________________________________________________________
global_average_pooling2d_1 ( (None, 1024)              0         
_________________________________________________________________
dropout_1 (Dropout)          (None, 1024)              0         
_________________________________________________________________
dense_1 (Dense)              (None, 10)                10250     
=================================================================
Total params: 3,239,114
Trainable params: 3,217,226
Non-trainable params: 21,888
_________________________________________________________________
60000it [01:37, 616.36it/s]
10000it [00:15, 634.64it/s]
Epoch 1/50
600/600 [==============================] - 44s 68ms/step - loss: 0.8523 - accuracy: 0.7652 - val_loss: 0.7369 - val_accuracy: 0.7606
…
